10L_20L.onnx (onnx, 2601 bytes, 7 tensors)

model/dense_4/MatMul/ReadVariableOp:0 f4 [5, 5]
000000 3b cd c1 41 00 00 00 00 00 00 00 00 00 00 00 00
       24.22521 0.0 0.0 0.0
000010 00 00 00 00 00 00 00 00 a0 0d fc 3f 00 00 00 00
       0.0 0.0 1.9691658 0.0
000020 00 00 00 00 00 00 00 00 00 00 00 00 00 00 00 00
       0.0 0.0 0.0 0.0
000030 36 8d a7 3f 00 00 00 00 00 00 00 00 00 00 00 00
       1.3089969 0.0 0.0 0.0
000040 00 00 00 00 00 00 00 00 3f b4 96 47 00 00 00 00
       0.0 0.0 77160.49 0.0
000050 00 00 00 00 00 00 00 00 00 00 00 00 00 00 00 00
       0.0 0.0 0.0 0.0
000060 25 00 df 3e
       0.43554798

model/dense_3/MatMul/ReadVariableOp:0 f4 [7, 5]
000000 76 a0 ef 3e 0d 72 a7 3f be e3 79 3e b0 94 7a 3e
       0.4680211 1.308168 0.24403283 0.24470782
000010 2f 2f 80 3e 92 99 3d bd 07 41 ed 3e 21 3a 02 3f
       0.25035998 -0.046289034 0.46338674 0.5086995
000020 63 7d fc 3e 52 54 35 3f 1e 80 36 3f bf 07 58 be
       0.49314412 0.7083179 0.7128924 -0.21096705
000030 ce 14 68 3e 25 16 8e 3e 11 14 e5 3e 09 4b ff 3e
       0.22664186 0.2775127 0.44741872 0.49861935
000040 20 04 01 bf d6 24 ca 3d e8 f5 8e 3d 71 52 ab 3d
       -0.5039692 0.09870307 0.06980497 0.08365334
000050 23 ae 2f 3f 11 cc 20 bf 3c ce 29 3f f7 bc 2b 3f
       0.68625087 -0.6281138 0.66330314 0.6708521
000060 dc 9f 15 3f 93 1d 1e 3e 62 2d bc bf 97 6c 52 3d
       0.5844705 0.15440969 -1.470135 0.05137309
000070 ad 99 43 3d b3 77 a2 be 4d c7 8e 3e 8f a8 f7 3e
       0.04775398 -0.31731948 0.2788643 0.48370788
000080 ce 01 bb 3e b7 d3 bb 3e c8 79 14 bf
       0.36524814 0.36684963 -0.57998323

model/dense_2/MatMul/ReadVariableOp:0 f4 [14, 7]
000000 95 fe a5 be 84 79 0d 3e 05 00 97 3d ef e9 56 3e
       -0.32420793 0.13815886 0.073730506 0.20987676
000010 68 f1 d9 bd 0e 07 86 be a6 8b 64 be 88 3a a1 be
       -0.10641748 -0.26177257 -0.22318897 -0.31489968
000020 08 83 4c 3e 59 d2 fe bd 0f 77 26 be a0 f3 d2 bd
       0.1997186 -0.124424644 -0.16256355 -0.10300374
000030 74 99 03 bf aa 88 e3 bd 52 f5 81 3e 63 66 44 bd
       -0.51406026 -0.11110051 0.25382477 -0.047949206
000040 8a f9 38 3c 8d ce 7d ba 37 f1 64 bd 62 bb 46 3e
       0.0112899635 -0.00096819625 -0.055894103 0.19407418
000050 5a 15 90 3e 7e 6b 91 be 42 bb 85 3e ce 07 af 3c
       0.2814129 -0.28402323 0.2611943 0.021366026
000060 bc 89 c2 3d c8 ce 36 3d 1c 19 a3 be 72 ca 4c be
       0.09498927 0.044630796 -0.31855094 -0.19999102
000070 52 d1 1f bf de 36 9d be 3a fb c8 3e 88 41 0a 3f
       -0.6242877 -0.30705923 0.3925417 0.5400624
000080 9c c4 19 bf ec c8 c5 3e a5 08 30 be 88 2f 72 3d
       -0.6006563 0.38629854 -0.17190798 0.05912736
000090 92 02 88 3e ca 66 02 3e b9 df 6f 3c c9 e3 94 3e
       0.2656446 0.12734523 0.014640742 0.29080036
0000a0 40 56 1d bf 94 06 66 bd 36 2d d2 be 4c 93 42 3e
       -0.6145973 -0.056158617 -0.41050118 0.19001502
0000b0 ad 13 a3 3d e3 f0 61 3e ee 55 80 3a 9c d3 77 be
       0.07962737 0.22064547 0.0009791234 -0.24201816
0000c0 be d3 c7 bd 93 12 46 bd 46 f1 49 ba 6a 20 46 3d
       -0.097571835 -0.048357558 -0.0007703494 0.048370756
0000d0 11 df e9 3d 93 ec db 3e 8d ae e1 3d dd b1 1b 3e
       0.114195 0.4295393 0.11019621 0.15204568
0000e0 9c be 28 3e f4 b6 9b 3e 7a ca 8e 3d 3d 0e f7 bd
       0.16478962 0.3041302 0.06972213 -0.120632626
0000f0 44 a1 a4 3e a6 95 5d be 59 82 03 3d 3e a0 20 bf
       0.32154286 -0.21639118 0.03210673 -0.6274451
000100 46 4d 07 be 9f cf 51 3d 67 df 97 3d 55 0f 91 be
       -0.13213071 0.051223394 0.074156575 -0.2833201
000110 13 b2 8d be 54 2a 9d be 1d 3d 1c bf d3 68 1f 3e
       -0.27674922 -0.30696356 -0.6103075 0.15567331
000120 ae 01 ba 3e fb 3f df 3e 42 95 3a be 57 c8 27 be
       0.36329406 0.436035 -0.18221 -0.16385017
000130 f1 e4 72 be 54 1f ad 3d 72 b0 eb 3d 65 29 a8 be
       -0.23720147 0.08453241 0.11508264 -0.32844082
000140 b1 6a 1e bd a0 e6 f5 bc 2e 3f 8c bd 23 16 07 3f
       -0.038675968 -0.030017197 -0.06847988 0.5276815
000150 79 59 3a 3d d9 cd 9d 3e ba 5a 0a be ff d6 05 be
       0.045495484 0.30821112 -0.13511172 -0.13070296
000160 eb c8 a3 3e 68 26 a0 bf 36 55 5f be 29 84 06 bf
       0.31989226 -1.2511721 -0.21809849 -0.5254541
000170 71 13 80 3d b4 03 30 3e a0 87 b3 3e fd e7 11 bf
       0.06253708 0.17188913 0.3506441 -0.5699461
000180 5c d6 a1 3d a9 5f 72 bd
       0.07902214 -0.05917326

model/dense_2/BiasAdd/ReadVariableOp:0 f4 [7]
000000 2c 0b 09 3e 09 a8 e5 3e 61 66 e3 3e 9e c0 db 3e
       0.13383168 0.44854763 0.44414046 0.42920393
000010 76 fe c7 3e 7e 98 ee 3c a4 01 27 3f
       0.39061326 0.029125448 0.6523688

model/dense_1/MatMul/ReadVariableOp:0 f4 [2, 14]
000000 1f da b1 3e 73 1d 17 3f 47 5f b8 be 0a 90 e2 3e
       0.34736726 0.5902931 -0.3601019 0.44250518
000010 bb ba 88 be 16 61 e9 3e 45 73 9a 3e 76 e6 be 3b
       -0.26704964 0.45581883 0.3016607 0.005825813
000020 8f 4b a3 3d 60 3d aa 3e 9f 93 8f 3e 3a d8 b0 be
       0.07973396 0.3324995 0.28042313 -0.34539968
000030 90 8c b1 3f b6 81 d5 3d 82 0f bd be aa 3d aa be
       1.3871021 0.10425131 -0.36925894 -0.3325017
000040 02 e8 ed 3d 62 a9 72 be 56 24 73 bf 9f 3a 26 be
       0.116165176 -0.23697427 -0.9497732 -0.162333
000050 a9 90 af be 0d 09 aa 3e 50 f2 0a 3e b5 53 f5 be
       -0.34290054 0.3321003 0.13568997 -0.47915426
000060 99 6c 3e bf ad 30 04 3e cc 6e 2e bf dc 98 12 bf
       -0.74384457 0.12909193 -0.6813781 -0.57264495

model/dense_1/BiasAdd/ReadVariableOp:0 f4 [14]
000000 9f 94 ae 3d 11 89 89 3e 2e 91 d3 3d 70 fd 82 3d
       0.08524441 0.26862386 0.10330425 0.063959956
000010 22 08 a3 3f 3a bb 58 3d 7b 96 86 3e cc dc 0d 3d
       1.2736857 0.05291293 0.26286682 0.034634396
000020 63 28 32 be d8 9b d3 3d a6 a0 b0 3e ad 79 07 3f
       -0.17398219 0.10332459 0.34497565 0.5292004
000030 1e ad 4d 3d 3f 3d 16 3f
       0.050213926 0.58687204

model/dense/MatMul/ReadVariableOp:0 f4 [2, 2]
000000 00 00 48 42 00 00 00 00 00 00 00 00 0a d7 23 3c
       50.0 0.0 0.0 0.01
