2L_5L.onnx (onnx, 4763 bytes, 9 tensors)

model/dense_5/MatMul/ReadVariableOp:0 f4 [5, 5]
000000 a8 b8 ec 41 00 00 00 00 00 00 00 00 00 00 00 00
       29.590164 0.0 0.0 0.0
000010 00 00 00 00 00 00 00 00 73 c6 4d 3e 00 00 00 00
       0.0 0.0 0.20095234 0.0
000020 00 00 00 00 00 00 00 00 00 00 00 00 00 00 00 00
       0.0 0.0 0.0 0.0
000030 92 0a 86 3f 00 00 00 00 00 00 00 00 00 00 00 00
       1.0471976 0.0 0.0 0.0
000040 00 00 00 00 00 00 00 00 b7 e6 40 47 00 00 00 00
       0.0 0.0 49382.715 0.0
000050 00 00 00 00 00 00 00 00 00 00 00 00 00 00 00 00
       0.0 0.0 0.0 0.0
000060 f4 bd 2a 3e
       0.16674024

model/dense_4/MatMul/ReadVariableOp:0 f4 [9, 5]
000000 42 2c dc bd a0 54 33 3e 88 04 20 3e 47 f8 40 3e
       -0.10750629 0.1751275 0.15626729 0.1884471
000010 5b 2c e7 3d b7 7d a3 bc da d9 3c bf b2 7a 9d 3e
       0.11287757 -0.019957406 -0.73769915 0.30757672
000020 b2 7a 9d 3e 9d 36 22 bf 6b 95 3c be c8 c9 13 bf
       0.30757672 -0.63364583 -0.18416373 -0.5772977
000030 5e 0c 70 39 4e 0b 70 39 b6 7c e5 3e bb 66 98 3e
       0.00022892791 0.00022892395 0.4482171 0.29765877
000040 0b a5 a6 be 96 8a 1d 3d 69 e0 ef 3e 71 62 01 3f
       -0.32547793 0.038462244 0.468509 0.50540835
000050 be a9 74 3d 86 97 5e 3f 85 7d 8b 3e 85 7d 8b 3e
       0.05973219 0.86949956 0.272442 0.272442
000060 cb aa 90 bd 1e 89 af bd 28 c3 b2 be 92 9c cc be
       -0.07063826 -0.08571075 -0.34914517 -0.39963204
000070 17 ae 38 be 13 7f d8 3e ab 8c ae be 03 3e 14 3f
       -0.1803516 0.4228445 -0.34091696 0.5790712
000080 39 15 1a b2 66 e8 29 b1 b1 73 37 3e 11 66 01 3f
       -8.968805e-09 -2.472484e-09 0.17915227 0.50546366
000090 ca 23 6c bd 0a 18 94 bd 09 18 94 bd a9 42 9e 3e
       -0.05765132 -0.072311476 -0.07231147 0.30910233
0000a0 8c ba f7 3d b8 82 bb 3d 79 ad 4c bd 3b 1e 55 b9
       0.12096128 0.09155792 -0.049970124 -0.00020324525
0000b0 4c 44 10 bd
       -0.035221383

model/dense_3/MatMul/ReadVariableOp:0 f4 [14, 9]
000000 e6 1c 15 be ad 9e 4d bf c7 9a d3 3c 5e 34 74 3c
       -0.14561805 -0.80320245 0.02583064 0.014905063
000010 cf 19 3d bd 8b 15 71 3d a9 2c 91 3d cc 3c e5 3d
       -0.04616719 0.058858436 0.070885964 0.11193237
000020 56 1b 38 be d0 0e 64 bd 27 8b a7 bb 96 d8 83 bd
       -0.17979178 -0.05567819 -0.005113024 -0.06437795
000030 93 98 a8 bd 7e a3 53 3e 15 19 9f bd ce d2 43 be
       -0.08232226 0.20667836 -0.07768456 -0.19123384
000040 ea 27 a8 3d c5 aa 8b 3e 1e 7e 19 be 18 72 c2 be
       0.08210738 0.27278724 -0.14989516 -0.37977672
000050 f2 c9 70 be 94 2c 90 3d 3a 94 2e be 76 08 d7 bb
       -0.23514536 0.070397526 -0.17048731 -0.006562288
000060 07 6b 63 3e 2a de 9e 3e 90 04 fd be 6f 5e 9e bd
       0.22208796 0.31028873 -0.49417543 -0.077328555
000070 8b 01 1b be 77 3a 9c 3d 0e 42 f9 bd df 27 6b be
       -0.15137307 0.07628339 -0.12170802 -0.22964428
000080 4b dc 2a 3e 6c 4f 74 3d fc 6e 55 3c fa aa 1a be
       0.16685598 0.059646055 0.013026949 -0.15104285
000090 d8 ba a4 3d f3 ce 1c 3e 72 0f 37 bd 23 3c 2d bd
       0.0804345 0.1531332 -0.044692464 -0.04229368
0000a0 e7 90 68 be 3b 3c b5 3e 0b 68 bd bd 65 ba 98 be
       -0.22711526 0.35397515 -0.0924836 -0.29829708
0000b0 39 35 15 3e 7a c8 e1 bd 47 31 d7 3d 76 66 a2 3e
       0.14571084 -0.11024566 0.10507446 0.31718796
0000c0 72 90 84 be 46 c5 41 3f a6 14 25 be 82 cb 69 be
       -0.25891453 0.7569164 -0.16121158 -0.22831538
0000d0 a9 d8 b3 3e c2 c4 52 be 68 fe f6 bd 08 36 59 be
       0.35126236 -0.2058287 -0.12060243 -0.21212018
0000e0 30 42 07 3e a5 2a 3e 3d 15 1f de 3b ab 84 d9 3c
       0.13208842 0.046427388 0.0067786076 0.026552519
0000f0 0a 93 7f 3a 97 75 98 3c 67 61 11 be 5f f2 e5 3c
       0.00097493886 0.018610759 -0.14197312 0.028069673
000100 97 94 70 3e 0e 01 a4 bc 20 bf 14 bd 44 9b a2 3b
       0.23494183 -0.020020034 -0.036315084 0.0049623568
000110 d1 d8 8e 3d dc c3 d4 bd de 8d 97 bd ca d0 8c 3d
       0.06974948 -0.1038892 -0.07400106 0.06875761
000120 72 e7 92 bd bc 73 d7 be 0b 1a 93 be 0a b1 40 be
       -0.07173051 -0.42080486 -0.28730807 -0.18817535
000130 04 0f 16 bf 24 1a d3 3e 34 eb 53 be 4b ce 98 be
       -0.5861666 0.4123088 -0.20695192 -0.2984489
000140 12 70 a1 be 87 08 1c be c7 dc 1c bf 67 c7 1e 3f
       -0.31530815 -0.15237628 -0.6127438 0.62023014
000150 63 32 25 bf 38 b8 11 bf 1c fc a2 3e 5d 4d 87 be
       -0.6453001 -0.5692172 0.3183297 -0.2642621
000160 6d 1e 8a be d8 a0 1f be e2 3c 29 be 3a 24 1d 3f
       -0.26976338 -0.15588701 -0.16527131 0.613834
000170 ea 1d 27 3f 83 45 09 3f 57 db 0c bf d3 3e 2c bf
       0.6528002 0.5362169 -0.55022186 -0.6728336
000180 11 7e 25 3f 4e 3c 0a 3f eb 58 21 be e0 a3 fc bd
       0.6464549 0.5399827 -0.15756576 -0.12335944
000190 fa b3 bd 3e ce 5e b7 3d 3d 2b 38 bd 58 95 ee 3e
       0.37051374 0.089536294 -0.04496311 0.46598315
0001a0 76 a0 41 be 14 b9 8e 3d 56 b9 a3 3e 2d 7e 01 3e
       -0.18908867 0.069688946 0.31977338 0.12645788
0001b0 36 54 35 bd bb 33 92 bd 1e 16 f8 bb ed ba bc bd
       -0.044269763 -0.07138773 -0.007570996 -0.09215341
0001c0 c7 2a ba bb 21 e1 ce 3c 4a ea a6 bc 43 7b 6a 3d
       -0.005681369 0.025253834 -0.02037539 0.057246458
0001d0 3e db 15 be d2 e4 db bb 4e ac 1e bf f8 e3 65 be
       -0.14634416 -0.006710627 -0.61981666 -0.22450244
0001e0 a0 8d 5d 3e b4 68 3e 3f 43 8c 62 be 26 54 b0 3d
       0.21636057 0.74378514 -0.22123818 0.086098
0001f0 d7 29 29 3e dd 86 b6 3d
       0.16519867 0.08912442

model/dense_3/BiasAdd/ReadVariableOp:0 f4 [9]
000000 8b bc 90 3e 96 f3 04 3f 9b fe 95 bd 02 cd 51 3e
       0.28268847 0.5193418 -0.07323953 0.2048836
000010 86 04 82 be b8 f2 68 3e 03 5a e5 3d 6e 3e 83 3e
       -0.25394076 0.2274884 0.11198809 0.25633568
000020 ad d6 d9 bb
       -0.006647906

model/dense_2/MatMul/ReadVariableOp:0 f4 [25, 14]
000000 2f da ba bc 5c bc 3f bd 3e d6 ac bc 74 90 9f 3e
       -0.022809116 -0.046810493 -0.021098252 0.31164896
000010 6b 47 be bc 10 ce 11 3e a8 5a 0d be 49 76 04 3d
       -0.023227414 0.14238763 -0.13804114 0.032339368
000020 3e a4 f9 3d 30 e8 ba 3e 45 b2 fe be a8 26 ce bd
       0.1218953 0.3650527 -0.49745384 -0.10065967
000030 30 91 a8 be 01 d2 a9 be f3 88 53 be aa b2 11 be
       -0.3292327 -0.33168033 -0.2065771 -0.14228311
000040 18 27 82 be 83 73 24 3e f7 50 aa 3e dc b0 09 3f
       -0.2542045 0.16059689 0.33264896 0.5378549
000050 f6 69 d0 bd d3 cd eb be 60 dd d3 bc a1 7a 83 3e
       -0.101764604 -0.4605547 -0.025862396 0.25679496
000060 d9 e8 04 be c3 4e 57 3e 6b bc 00 bf b5 49 99 3c
       -0.1297945 0.21026139 -0.50287503 0.018711904
000070 95 15 81 3d c3 cc ef 3d f5 de 87 3d 99 e3 8a be
       0.063029446 0.11708977 0.066343226 -0.27126768
000080 c1 1c 50 be 18 c8 4f bd 91 c4 13 3d aa 95 83 3d
       -0.20323469 -0.050727934 0.036076132 0.064250305
000090 a2 8f 00 be 83 62 88 be e0 14 62 3e 6b 31 22 3d
       -0.12554792 -0.26637658 0.22078276 0.03959791
0000a0 df b1 7e 3e d4 8d 72 3b fd 8b bb bd 42 8b 9a bd
       0.2487254 0.0037010806 -0.0915756 -0.075460926
0000b0 2e f9 96 bd a4 09 07 3e 12 f4 95 bb be d4 7e 3e
       -0.07371746 0.13187271 -0.0045762146 0.24885842
0000c0 71 1c 84 3c 4a 86 2d be 2b 53 9d 3c a8 ef 94 3e
       0.016126843 -0.16945758 0.019204697 0.29089093
0000d0 eb 14 4f be 52 45 37 3c 10 bc 98 be 18 1a c3 bd
       -0.20222823 0.011185961 -0.2983098 -0.09526461
0000e0 2f 6a 0a 3b 7b 0f d4 3c 57 94 14 3d 6a a3 94 3d
       0.002112042 0.025886288 0.03627428 0.07257731
0000f0 4a c6 9b 3d 03 8f 67 3d 35 69 58 3c 19 bc 52 39
       0.0760618 0.05653287 0.013208677 0.00020097232
000100 b6 5a 71 bc 50 b6 be bd f0 39 b9 bc ba 77 92 bd
       -0.0147311 -0.09312117 -0.022610635 -0.07151742
000110 97 4a 15 bd ef 2f 2b bc 17 4f 87 bd 1b 4c 72 bd
       -0.036448088 -0.01044844 -0.06606882 -0.05915461
000120 e0 c2 52 be 75 9f 65 be 9a 9d aa 3d 0d d9 1e 3f
       -0.20582151 -0.2242411 0.08330841 0.62049943
000130 5f 69 6e bd ec ca d8 be 5d 49 0d be 33 aa a4 3e
       -0.05820596 -0.42342317 -0.13797517 0.32161102
000140 9e 9b db bc 34 3a 22 3e 78 66 b2 be 09 b4 15 3e
       -0.026807602 0.15842515 -0.34843802 0.14619459
000150 ab 61 68 be ca 3f 65 bd 51 53 ee bb 8c ad 21 bd
       -0.22693507 -0.055969037 -0.0072731157 -0.039472148
000160 d7 62 76 bd c5 bf 0d bd cf 03 df 3b b9 2c 80 bd
       -0.060152855 -0.034606714 0.006805874 -0.0625853
000170 78 88 14 bc f5 ef e5 3d 7b 91 6b bd c7 73 fb 3c
       -0.00906574 0.11227409 -0.057511788 0.030694855
000180 a0 80 9b bd 28 c1 e4 3c 28 9f 90 3d 9b ef cc bc
       -0.07592893 0.027924135 0.07061607 -0.025016597
000190 e8 ae 32 3d c9 08 92 bc ad 32 9f 3c c8 ca 7b 3b
       0.043623835 -0.017826455 0.019433344 0.0038420428
0001a0 d6 94 09 bc 2f 8d f2 3c 46 3a 03 be 5e c7 01 3d
       -0.008397302 0.029608337 -0.12815198 0.031684272
0001b0 70 e6 6d 3b 8d a5 e5 3d 3d 90 ca 3d f9 03 98 3d
       0.0036300682 0.11213217 0.098907925 0.07422633
0001c0 c9 07 49 bd 74 b0 97 3c 17 fa c2 3c 8b eb d0 bd
       -0.04907969 0.018516757 0.023800893 -0.10201176
0001d0 b3 18 16 be 04 2b 1c 3f 07 c3 7f bd 3b f8 1a be
       -0.1465786 0.61003137 -0.062441852 -0.15133755
0001e0 3d c5 4e be 05 71 d4 bc 08 3e c3 bd 2c 57 80 3e
       -0.20192428 -0.025932798 -0.09533316 0.25066507
0001f0 db 9c 32 be 23 67 a9 bc 39 16 86 be 54 a9 6f be
       -0.17442648 -0.020679062 -0.2618883 -0.23404437
000200 ce b6 0c be 59 b2 d3 3e c1 46 0e 3e 52 95 91 3e
       -0.1374161 0.41347006 0.13894178 0.28434235
000210 b5 1b 11 be 82 4c a3 be 69 74 63 3e 64 c7 0f 3f
       -0.14170726 -0.31894308 0.22212376 0.5616362
000220 ef 80 21 bf ea 9a 5e 3c d6 56 16 bf 24 42 84 be
       -0.6308736 0.013586739 -0.5872625 -0.2583171
000230 1b 75 15 bd d8 26 8a 3d 2d bd 00 bb 25 e4 25 3e
       -0.036488634 0.0674569 -0.0019644008 0.16200311
000240 83 f2 90 bd 2f ba 87 be 48 07 c9 3c 8f d7 28 3e
       -0.070775054 -0.26509234 0.024539605 0.16488479
000250 6f 91 1f 3e 0a 6d 19 3e ef 8c 03 be 7e 53 22 bd
       0.15582822 0.14983001 -0.1284673 -0.039630406
000260 08 60 eb 3c ed c4 45 be 34 08 07 3d 0f bd e4 bd
       0.028732315 -0.19313402 0.032966807 -0.111688726
000270 9b 9d 24 be 4b 27 23 be e6 8e 41 3d df 23 ad 3e
       -0.16075747 -0.15932958 0.04725542 0.3381643
000280 55 fc a5 3c 79 e1 8c bd 0a 9d c5 be 2b 03 0c bf
       0.020261923 -0.06878943 -0.38596374 -0.54692334
000290 ec 62 ae 3e 22 c6 38 3e de 61 82 bb dd f8 9b 3e
       0.34059846 0.18044332 -0.003978952 0.30463305
0002a0 8b 5b 1e be 5a 08 3c be 86 53 c6 bd d0 bd 11 3e
       -0.15464608 -0.18362561 -0.096838996 0.14232564
0002b0 3a af 44 bd 13 c8 2b 3f 6e f9 95 3d cd 58 9e be
       -0.04801867 0.67102164 0.073229656 -0.30927125
0002c0 3d 22 5f 3d c4 45 07 3f 55 9b e7 be 3d 9f 31 3e
       0.05447601 0.5284083 -0.45235696 0.17345901
0002d0 06 77 25 bf 2b 55 14 be 0a 30 6d 3c b1 05 24 3d
       -0.6463474 -0.14485614 0.014476785 0.04004449
0002e0 10 f8 bd bd cc 97 48 bd f4 80 b5 bc 5b bd e6 3d
       -0.0927583 -0.04897289 -0.022156216 0.112665854
0002f0 61 db ae 3c 66 b7 3d 3d 89 3b 9b bc b5 2d 57 3d
       0.021344842 0.04631748 -0.018949287 0.052533824
000300 5d 24 e6 3b 69 77 2d bc 20 7d 25 bd 1c 3d 0a bd
       0.007023378 -0.010587552 -0.04040253 -0.033749685
000310 31 d9 04 3e 65 46 84 3c c4 a5 65 3d 78 88 9c be
       0.12973477 0.016146848 0.05606629 -0.30572867
000320 3f c7 4e be b7 d6 e7 3e 30 44 3d 3d 42 29 c4 3b
       -0.20193194 0.45281002 0.046207607 0.0059863636
000330 48 7e c6 be fc f7 d6 be d5 cd 8e 3e a9 d3 a2 3e
       -0.3876822 -0.41986072 0.27891412 0.3180211
000340 bd b1 79 3d 1a 13 65 3d 22 93 60 3d ec ce 1f 3d
       0.06096052 0.05592642 0.054827817 0.039015695
000350 04 a9 af 3d 42 b8 d3 bd 51 9f 65 3d d3 c4 00 be
       0.08577159 -0.10337879 0.05606014 -0.12575082
000360 43 2f f8 3b 55 dc 0a 3e 2a bd 07 3c a8 66 99 be
       0.0075739934 0.13560612 0.008284846 -0.29961133
000370 5f d8 66 3e e3 df 4b 3d e6 ec 3d 3e cd 64 9a 3d
       0.22543477 0.049774062 0.18547401 0.075387575
000380 c3 5e 03 be 4b ef aa bd 44 ed 6d be 85 8c 39 be
       -0.12829117 -0.08346423 -0.23235041 -0.1812001
000390 9e df 21 bd b9 8c 43 3f b1 4d 04 bd 95 a7 a3 be
       -0.0395199 0.763866 -0.032300655 -0.31963792
0003a0 79 32 18 be 80 13 7a 3e 1b ab 98 ba f9 3f 5b 3e
       -0.14863004 0.24421501 -0.0011647673 0.21411122
0003b0 ca d8 e4 be a2 03 e5 3d 6d 19 33 be 3b c3 4d be
       -0.44696647 0.111823335 -0.17490168 -0.20094006
0003c0 e6 16 d4 bd e4 f1 81 3d c8 09 d7 3c 64 3e ae 3e
       -0.1035593 0.06344965 0.026249781 0.34031975
0003d0 67 aa 32 bb 4f c9 00 be ed 41 f9 bc e3 d7 24 3e
       -0.0027262212 -0.12576793 -0.030426944 0.16097979
0003e0 92 14 47 be b0 a2 c7 3c 7e 03 af be 04 7c 41 3d
       -0.1944144 0.024369568 -0.34182352 0.04723741
0003f0 6f 77 86 bd a4 be 65 bc 62 a3 66 bd 55 49 03 3e
       -0.06565749 -0.014022503 -0.056308158 0.12820943

model/dense_2/BiasAdd/ReadVariableOp:0 f4 [14]
000000 a0 8d 3f 3d 01 e2 f3 3d 0f 28 c8 bb 65 29 a5 3d
       0.046765924 0.11908341 -0.006108291 0.08064536
000010 e2 60 78 3e 2b f0 7b 3d ce f4 a6 3d af d3 b5 3e
       0.24255708 0.06150834 0.081521615 0.35513064
000020 fd f0 f9 3e 98 bb d0 3e 1d a4 df 3e 61 e1 d9 3d
       0.48816672 0.40768123 0.43679896 0.10638691
000030 ef f9 d7 3c 9a 0e ea 3e
       0.026364295 0.45714265

model/dense_1/MatMul/ReadVariableOp:0 f4 [2, 25]
000000 55 b4 0c 3f e7 8e a6 3e 04 aa 5d 3c 5d 24 98 be
       0.54962665 0.325309 0.013529304 -0.29715243
000010 1a 7a 11 3b 84 62 de be 81 78 d4 3d ae 84 41 bd
       0.0022198022 -0.43434536 0.10374547 -0.047245674
000020 6d cd fc 3e de c8 43 3f 4c 93 8d 3d 47 1e a6 be
       0.49375477 0.76478374 0.0691286 -0.32444975
000030 8b 41 54 3f 4f a9 c3 3d f9 67 09 3e db 28 62 be
       0.8291251 0.095537774 0.13418569 -0.22085898
000040 7c 52 18 3f b5 9d b7 be 39 5d ab bd bb 7d b9 3e
       0.5950086 -0.35862508 -0.0836739 0.36228737
000050 b6 6e 1e 3f 34 7c a7 3b 98 f8 ad 3e f7 36 8d 3e
       0.6188768 0.0051112417 0.33978724 0.27580997
000060 8a 63 9d be 83 17 e3 be bc d5 25 3e c0 e9 89 3e
       -0.30740005 -0.44353876 0.16194814 0.2693615
000070 46 92 eb be 43 63 a2 be 65 0c 28 38 94 e6 9b be
       -0.46010035 -0.31716356 4.0065865e-05 -0.30449355
000080 37 11 9d 39 ef 55 d7 3e 07 de 92 be 01 92 c9 be
       0.000299582 0.4205775 -0.28685018 -0.39369205
000090 59 72 3a 3f 58 c9 b7 bc 1b 91 83 be 9e 98 44 3f
       0.7283073 -0.022434875 -0.25696644 0.76795375
0000a0 44 f9 68 3e 1c 84 ec 3e b8 6b 6c be 41 a1 97 be
       0.22751337 0.4619454 -0.23087966 -0.29615214
0000b0 9e 08 5c 3f 96 e3 a5 3c 93 3e 96 be 80 ba 84 be
       0.8595065 0.020250123 -0.29344615 -0.25923538
0000c0 f7 d4 aa 3e 86 88 60 be
       0.33365604 -0.2192708

model/dense_1/BiasAdd/ReadVariableOp:0 f4 [25]
000000 72 22 90 3e c0 bd 1f 3e 33 36 a1 3e 1b 31 ba be
       0.2815128 0.15599728 0.31486663 -0.3636559
000010 63 8f e0 3d b7 2a 97 be 07 bb 22 3d f8 bc e8 3b
       0.10964849 -0.29524776 0.039729144 0.007102605
000020 c8 06 98 3d 3a f3 4e 3e f2 ba 89 3d 76 d2 63 3c
       0.074231684 0.20209971 0.0672511 0.013905158
000030 57 3f 88 bd 5c cd 2a 3d 29 f3 34 3e b2 22 ee 3e
       -0.06652706 0.041699752 0.17670883 0.46510845
000040 f7 2d 5a 3e ff ab c2 3d 56 0f 18 be 5d 03 a6 bd
       0.21306597 0.09505462 -0.148496 -0.0810611
000050 fc 55 22 3f 7a 42 bd 3d 7c 0c 1b 3e 11 0a 09 3e
       0.6341245 0.09241195 0.15141481 0.13382746
000060 79 09 56 3d
       0.052255128

model/dense/MatMul/ReadVariableOp:0 f4 [2, 2]
000000 00 00 48 43 00 00 00 00 00 00 00 00 0a d7 23 3c
       200.0 0.0 0.0 0.01
