800L_2000L.onnx (onnx, 2601 bytes, 7 tensors)

model/dense_4/MatMul/ReadVariableOp:0 f4 [5, 5]
8.471903 0.0 0.0 0.0 0.0 0.0 45.391724 0.0
0.0 0.0 0.0 0.0 1.884 0.0 0.0 0.0
0.0 0.0 533333.3 0.0 0.0 0.0 0.0 0.0
0.14697859
00000000: ea8c 0741 0000 0000 0000 0000 0000 0000
00000010: 0000 0000 0000 0000 2091 3542 0000 0000
00000020: 0000 0000 0000 0000 0000 0000 0000 0000
00000030: e926 f13f 0000 0000 0000 0000 0000 0000
00000040: 0000 0000 0000 0000 5535 0249 0000 0000
00000050: 0000 0000 0000 0000 0000 0000 0000 0000
00000060: 8e81 163e

model/dense_3/MatMul/ReadVariableOp:0 f4 [7, 5]
0.3047359 1.3196665 0.22878624 0.21963538 0.11071231 0.17544101 0.28126597 0.40984076
0.4632305 0.7384535 0.7482781 -0.32936263 0.053264223 0.18300292 0.18275736 0.5294569
-0.4597829 0.010452078 -0.106624946 -0.04804101 0.6840557 -0.52601075 0.57646763 0.5701226
0.5523231 0.1102036 -1.3159997 0.01227646 0.015924549 -0.46107045 0.12724122 0.18776412
0.39513582 0.39027202 -0.68512577
00000000: 5806 9c3e d5ea a83f f146 6a3e 19e8 603e
00000010: 23bd e23d cfa6 333e 1802 903e a6d6 d13e
00000020: 8c2c ed3e 4a0b 3d3f 278f 3f3f 38a2 a8be
00000030: 962b 5a3d 1e65 3b3e bf24 3b3e 7d8a 073f
00000040: aa68 ebbe 313f 2b3c 2e5e dabd a6c6 44bd
00000050: 461e 2f3f a4a8 06bf 6293 133f 8ef3 113f
00000060: 0c65 0d3f 6db2 e13d ae72 a8bf 3523 493c
00000070: 3374 823c 6d11 ecbe 864b 023e 3d45 403e
00000080: 3e4f ca3e bcd1 c73e 6764 2fbf

model/dense_2/MatMul/ReadVariableOp:0 f4 [14, 7]
-0.31620085 0.1242602 0.009980752 0.1757545 -0.059466306 -0.2841558 -0.17579804 -0.23096438
0.15591393 -0.28693393 -0.30402458 -0.13414429 -0.5628845 -0.14792332 0.23571023 -0.06352729
0.020854985 0.0024746582 -0.094455704 0.21672982 0.23137347 -0.25309497 0.21741886 -0.09817915
0.037986107 0.027704414 -0.349331 -0.19683927 -0.9191381 -0.2352206 0.39108095 0.49730667
-0.5689394 0.13212033 -0.11122176 0.10540046 0.32110468 0.03035542 -0.044713836 0.24937737
-0.63364065 0.020772072 -0.40568364 0.16185388 -0.04850629 0.16842958 0.029653667 -0.2659186
-0.06659028 -0.09690992 0.076323 0.102968305 0.16179496 0.48192388 0.08008381 0.2103201
0.13489361 0.36946967 0.09043995 -0.044166904 0.34558785 -0.17889856 0.11260063 -0.6630336
-0.1518064 -0.00016252926 -0.04878825 -0.27114546 -0.3652363 -0.37465245 -0.49728584 0.12357854
0.11918411 0.15459912 -0.2567207 -0.33229685 -0.17953818 0.025397979 0.11487181 -0.36897802
-0.031265665 -0.043832183 -0.1888717 0.5488581 0.037617877 0.23229025 -0.3045642 -0.21722153
0.31228825 -1.0140574 -0.3377751 -0.54998606 0.026841681 0.10064135 0.22485939 -0.52083915
-0.012535291 -0.08251534
00000000: 14e5 a1be 227c fe3d 4f86 233c fdf8 333e
00000010: f192 73bd de7c 91be 6704 34be ed81 6cbe
00000020: e7a7 1f3e 01e9 92be 1ca9 9bbe 1f5d 09be
00000030: 3319 10bf 3679 17be 065e 713e 991a 82bd
00000040: 13d8 aa3c e02d 223b fe71 c1bd 6cee 5d3e
00000050: 2bed 6c3e aa95 81be 0da3 5e3e 2612 c9bd
00000060: 5297 1b3d 5ef4 e23c 83db b2be 3c90 49be
00000070: a24c 6bbf abdd 70be c33b c83e fb9e fe3e
00000080: 03a6 11bf 8d4a 073e 3cc8 e3bd 32dc d73d
00000090: d567 a43e eeab f83c db25 37bd c85c 7f3e
000000a0: 4636 22bf 312a aa3c c4b5 cfbe 06bd 253e
000000b0: 88ae 46bd ce78 2c3e 3fec f23c 7c26 88be
000000c0: 7c60 88bd b578 c6bd 3c4f 9c3d 0ce1 d23d
000000d0: 94ad 253e babe f63e fb02 a43d 275e 573e
000000e0: 8d21 0a3e 212b bd3e 9538 b93d 5be8 34bd
000000f0: e4f0 b03e 2f31 37be 299b e63d 92bc 29bf
00000100: 2373 1bbe 9e6c 2ab9 30d6 47bd 94d3 8abe
00000110: 4100 bbbe 72d2 bfbe 409c febe bf16 fd3d
00000120: cc16 f43d 3b4f 1e3e e570 83be d022 aabe
00000130: dbd8 37be 6c0f d03c e941 eb3d b0ea bcbe
00000140: 6d10 00bd 6089 33bd 9567 41be f781 0c3f
00000150: 3415 1a3d 7fdd 6d3e d7ef 9bbe 526f 5ebe
00000160: 3fe4 9f3e a2cc 81bf dcf0 acbe e3cb 0cbf
00000170: 16e3 db3c 0d1d ce3d 8a41 663e b755 05bf
00000180: d260 4dbc cdfd a8bd

model/dense_2/BiasAdd/ReadVariableOp:0 f4 [7]
0.1303885 0.4370392 0.29498842 0.2763249 0.42870542 -0.15812106 0.6307732
00000000: 9084 053e 9ac3 df3e b908 973e 757a 8d3e
00000010: 477f db3e 7dea 21be 5a7a 213f

model/dense_1/MatMul/ReadVariableOp:0 f4 [2, 14]
0.25534004 0.54848444 -0.30458146 0.39013493 -0.35325322 0.4520006 0.20001678 0.11088053
0.14862148 0.315778 0.23081213 -0.27742225 1.0826285 0.038246546 -0.30734247 -0.44320914
0.17000815 -0.25918037 -0.8123693 -0.14692886 -0.21388042 0.42978343 0.21374315 -0.6933796
-0.51649433 0.1719157 -0.5157203 -0.5371816
00000000: eebb 823e 7a69 0c3f 1af2 9bbe c4bf c73e
00000010: 9bdd b4be 9f6c e73e 33d1 4c3e 5515 e33d
00000020: 3b30 183e a7ad a13e 045a 6c3e 4a0a 8ebe
00000030: 9293 8a3f 69a8 1c3d fe5b 9dbe 4fec e2be
00000040: 9e16 2e3e 4ab3 84be 6ff7 4fbf 8574 16be
00000050: 7803 5bbe 930c dc3e 7cdf 5a3e 5381 31bf
00000060: f938 04bf ab0a 303e 3f06 04bf bc84 09bf

model/dense_1/BiasAdd/ReadVariableOp:0 f4 [14]
0.13673307 0.359067 0.0482091 0.11097785 1.2818012 0.21792161 0.300839 0.022393588
-0.025461704 0.15245238 0.33424813 0.63614386 0.18399952 0.4648468
00000000: c103 0c3e a1d7 b73e e876 453d 5b48 e33d
00000010: 1012 a43f d826 5f3e 9207 9a3e c272 b73c
00000020: 1095 d0bc 7a1c 1c3e 9222 ab3e 53da 223f
00000030: 5f6a 3c3e 6600 ee3e

model/dense/MatMul/ReadVariableOp:0 f4 [2, 2]
0.5 0.0 0.0 0.033333335
00000000: 0000 003f 0000 0000 0000 0000 8988 083d
